…
        "        metrics=[\"accuracy\"])\n",
        "\n",
        "# print model summary\n",
        "model.summary()"
      ],
      "execution_count": 8,
      "outputs": [
        {
          "output_type": "stream",
          "text": [
            "[INFO] compiling model...\n",
            "Model: \"sequential\"\n",
            "_________________________________________________________________\n",
            "Layer (type)                 Output Shape              Param #   \n",
            "=================================================================\n",
            "conv2d (Conv2D)              (None, 28, 28, 6)         456       \n",
            "_________________________________________________________________\n",
            "average_pooling2d (AveragePo (None, 14, 14, 6)         0         \n",
            "_________________________________________________________________\n",
            "conv2d_1 (Conv2D)            (None, 10, 10, 16)        2416      \n",
            "_________________________________________________________________\n",
            "average_pooling2d_1 (Average (None, 5, 5, 16)          0         \n",
            "_________________________________________________________________\n",
            "flatten (Flatten)            (None, 400)               0         \n",
            "_________________________________________________________________\n",
            "dense (Dense)                (None, 120)               48120     \n",
            "_________________________________________________________________\n",
            "dense_1 (Dense)              (None, 84)                10164     \n",
            "_________________________________________________________________\n",
            "dense_2 (Dense)              (None, 10)                850       \n",
            "=================================================================\n",
            "Total params: 62,006\n",
            "Trainable params: 62,006\n",
            "Non-trainable params: 0\n",
            "_________________________________________________________________\n"
          ],
          "name": "stdout"
        }
      ]
    },
    {
      "cell_type": "code",
      "metadata": {
…
