…
        "        metrics=[\"accuracy\"])\n",
        "\n",
        "# print model summary\n",
        "model.summary()\n"
      ],
      "execution_count": 0,
      "outputs": [
        {
          "output_type": "stream",
          "text": [
            "[INFO] compiling model...\n",
            "Model: \"sequential_3\"\n",
            "_________________________________________________________________\n",
            "Layer (type)                 Output Shape              Param #   \n",
            "=================================================================\n",
            "conv2d_6 (Conv2D)            (None, 28, 28, 6)         156       \n",
            "_________________________________________________________________\n",
            "average_pooling2d_6 (Average (None, 14, 14, 6)         0         \n",
            "_________________________________________________________________\n",
            "conv2d_7 (Conv2D)            (None, 10, 10, 16)        2416      \n",
            "_________________________________________________________________\n",
            "average_pooling2d_7 (Average (None, 5, 5, 16)          0         \n",
            "_________________________________________________________________\n",
            "flatten_3 (Flatten)          (None, 400)               0         \n",
            "_________________________________________________________________\n",
            "dense_9 (Dense)              (None, 120)               48120     \n",
            "_________________________________________________________________\n",
            "dense_10 (Dense)             (None, 84)                10164     \n",
            "_________________________________________________________________\n",
            "dense_11 (Dense)             (None, 10)                850       \n",
            "=================================================================\n",
            "Total params: 61,706\n",
            "Trainable params: 61,706\n",
            "Non-trainable params: 0\n",
            "_________________________________________________________________\n"
          ],
          "name": "stdout"
        }
      ]
    },
    {
      "cell_type": "code",
      "metadata": {
…
